…
2024-03-17 13:13:52,140 (initialize:88) INFO: Initialize decoder.decoders.2.norm1.bias to zeros
2024-03-17 13:13:52,141 (initialize:88) INFO: Initialize decoder.decoders.2.norm2.bias to zeros
2024-03-17 13:13:52,141 (initialize:88) INFO: Initialize decoder.decoders.2.norm3.bias to zeros
2024-03-17 13:13:52,141 (initialize:88) INFO: Initialize ctc.ctc_lo.bias to zeros
2024-03-17 13:13:56,023 (asr_inference:353) INFO: BatchBeamSearch implementation is selected.
2024-03-17 13:13:56,025 (asr_inference:364) INFO: Beam_search: BatchBeamSearch(
  (nn_dict): ModuleDict(
    (decoder): TransformerDecoder(
      (embed): Sequential(
        (0): Embedding(82, 256)
        (1): PositionalEncoding(
          (dropout): Dropout(p=0.1, inplace=False)
        )
      )
      (after_norm): LayerNorm((256,), eps=1e-12, elementwise_affine=True)
      (output_layer): Linear(in_features=256, out_features=82, bias=True)
      (decoders): MultiSequential(
        (0): DecoderLayer(
          (self_attn): MultiHeadedAttention(
            (linear_q): Linear(in_features=256, out_features=256, bias=True)
            (linear_k): Linear(in_features=256, out_features=256, bias=True)
            (linear_v): Linear(in_features=256, out_features=256, bias=True)
            (linear_out): Linear(in_features=256, out_features=256, bias=True)
            (dropout): Dropout(p=0.1, inplace=False)
          )
          (src_attn): MultiHeadedAttention(
            (linear_q): Linear(in_features=256, out_features=256, bias=True)
            (linear_k): Linear(in_features=256, out_features=256, bias=True)
            (linear_v): Linear(in_features=256, out_features=256, bias=True)
            (linear_out): Linear(in_features=256, out_features=256, bias=True)
            (dropout): Dropout(p=0.1, inplace=False)
          )
          (feed_forward): PositionwiseFeedForward(
            (w_1): Linear(in_features=256, out_features=1024, bias=True)
            (w_2): Linear(in_features=1024, out_features=256, bias=True)
            (dropout): Dropout(p=0.1, inplace=False)
            (activation): ReLU()
          )
          (norm1): LayerNorm((256,), eps=1e-12, elementwise_affine=True)
          (norm2): LayerNorm((256,), eps=1e-12, elementwise_affine=True)
          (norm3): LayerNorm((256,), eps=1e-12, elementwise_affine=True)
          (dropout): Dropout(p=0.1, inplace=False)
        )
        (1): DecoderLayer(
          (self_attn): MultiHeadedAttention(
            (linear_q): Linear(in_features=256, out_features=256, bias=True)
            (linear_k): Linear(in_features=256, out_features=256, bias=True)
            (linear_v): Linear(in_features=256, out_features=256, bias=True)
            (linear_out): Linear(in_features=256, out_features=256, bias=True)
            (dropout): Dropout(p=0.1, inplace=False)
          )
          (src_attn): MultiHeadedAttention(
            (linear_q): Linear(in_features=256, out_features=256, bias=True)
            (linear_k): Linear(in_features=256, out_features=256, bias=True)
            (linear_v): Linear(in_features=256, out_features=256, bias=True)
            (linear_out): Linear(in_features=256, out_features=256, bias=True)
            (dropout): Dropout(p=0.1, inplace=False)
          )
          (feed_forward): PositionwiseFeedForward(
            (w_1): Linear(in_features=256, out_features=1024, bias=True)
            (w_2): Linear(in_features=1024, out_features=256, bias=True)
            (dropout): Dropout(p=0.1, inplace=False)
            (activation): ReLU()
          )
          (norm1): LayerNorm((256,), eps=1e-12, elementwise_affine=True)
          (norm2): LayerNorm((256,), eps=1e-12, elementwise_affine=True)
          (norm3): LayerNorm((256,), eps=1e-12, elementwise_affine=True)
          (dropout): Dropout(p=0.1, inplace=False)
        )
        (2): DecoderLayer(
          (self_attn): MultiHeadedAttention(
            (linear_q): Linear(in_features=256, out_features=256, bias=True)
            (linear_k): Linear(in_features=256, out_features=256, bias=True)
            (linear_v): Linear(in_features=256, out_features=256, bias=True)
            (linear_out): Linear(in_features=256, out_features=256, bias=True)
            (dropout): Dropout(p=0.1, inplace=False)
          )
          (src_attn): MultiHeadedAttention(
            (linear_q): Linear(in_features=256, out_features=256, bias=True)
            (linear_k): Linear(in_features=256, out_features=256, bias=True)
            (linear_v): Linear(in_features=256, out_features=256, bias=True)
            (linear_out): Linear(in_features=256, out_features=256, bias=True)
            (dropout): Dropout(p=0.1, inplace=False)
          )
          (feed_forward): PositionwiseFeedForward(
            (w_1): Linear(in_features=256, out_features=1024, bias=True)
            (w_2): Linear(in_features=1024, out_features=256, bias=True)
            (dropout): Dropout(p=0.1, inplace=False)
            (activation): ReLU()
          )
          (norm1): LayerNorm((256,), eps=1e-12, elementwise_affine=True)
          (norm2): LayerNorm((256,), eps=1e-12, elementwise_affine=True)
          (norm3): LayerNorm((256,), eps=1e-12, elementwise_affine=True)
          (dropout): Dropout(p=0.1, inplace=False)
        )
      )
    )
  )
)
2024-03-17 13:13:56,025 (asr_inference:365) INFO: Decoding device=cuda, dtype=float32
2024-03-17 13:13:56,099 (asr_inference:443) INFO: Text tokenizer: SentencepiecesTokenizer(model="data/token_list/bpe_unigram82/bpe.model")
2024-03-17 13:13:56,252 (asr:494) INFO: Optional Data Names: ('text_spk2', 'text_spk3', 'text_spk4', 'prompt')
…
